…
2021-02-16 09:20:15.464839: I tensorflow/core/common_runtime/gpu/gpu_device.cc:1261] Device interconnect StreamExecutor with strength 1 edge matrix:
2021-02-16 09:20:15.465743: I tensorflow/core/common_runtime/gpu/gpu_device.cc:1267]
2021-02-16 09:20:15.479232: I tensorflow/compiler/jit/xla_gpu_device.cc:99] Not creating XLA devices, tf_xla_enable_xla_devices not set
Model: "sequential"
_________________________________________________________________
Layer (type)                 Output Shape              Param #
=================================================================
conv2d (Conv2D)              (None, 30, 30, 16)        448
_________________________________________________________________
batch_normalization (BatchNo (None, 30, 30, 16)        64
_________________________________________________________________
conv2d_1 (Conv2D)            (None, 30, 30, 32)        4640
_________________________________________________________________
batch_normalization_1 (Batch (None, 30, 30, 32)        128
_________________________________________________________________
conv2d_2 (Conv2D)            (None, 30, 30, 64)        18496
_________________________________________________________________
batch_normalization_2 (Batch (None, 30, 30, 64)        256
_________________________________________________________________
conv2d_3 (Conv2D)            (None, 10, 10, 128)       204928
_________________________________________________________________
batch_normalization_3 (Batch (None, 10, 10, 128)       512
_________________________________________________________________
max_pooling2d (MaxPooling2D) (None, 5, 5, 128)         0
_________________________________________________________________
flatten (Flatten)            (None, 3200)              0
_________________________________________________________________
dense (Dense)                (None, 2400)              7682400
_________________________________________________________________
dense_1 (Dense)              (None, 1200)              2881200
_________________________________________________________________
dense_2 (Dense)              (None, 600)               720600
_________________________________________________________________
dense_3 (Dense)              (None, 300)               180300
_________________________________________________________________
dense_4 (Dense)              (None, 120)               36120
_________________________________________________________________
dense_5 (Dense)              (None, 60)                7260
_________________________________________________________________
dense_6 (Dense)              (None, 30)                1830
_________________________________________________________________
dense_7 (Dense)              (None, 10)                310
=================================================================
Total params: 11,739,492
Trainable params: 11,738,532
Non-trainable params: 960
_________________________________________________________________

2021-02-16 09:20:15.789269: I tensorflow/compiler/mlir/mlir_graph_optimization_pass.cc:116] None of the MLIR optimization passes are enabled (registered 2)
Epoch 1/50
3125/3125 [==============================] - 219s 70ms/step - loss: 0.0906 - accuracy: 0.1338 - val_loss: 0.0876 - val_accuracy: 0.1978
…
