[TIMER] Process Time: 21:13:49
[INFO] GPU not detected.
[INFO] Done importing packages.
[INFO] Loading Traning and Test Datasets.
(404, 13, 1)
(102, 13, 1)
Model: "sequential"
_________________________________________________________________
Layer (type)                 Output Shape              Param #   
=================================================================
conv1d (Conv1D)              (None, 11, 16)            64        
_________________________________________________________________
batch_normalization (BatchNo (None, 11, 16)            64        
_________________________________________________________________
conv1d_1 (Conv1D)            (None, 9, 32)             1568      
_________________________________________________________________
batch_normalization_1 (Batch (None, 9, 32)             128       
_________________________________________________________________
conv1d_2 (Conv1D)            (None, 7, 64)             6208      
_________________________________________________________________
batch_normalization_2 (Batch (None, 7, 64)             256       
_________________________________________________________________
conv1d_3 (Conv1D)            (None, 5, 128)            24704     
_________________________________________________________________
batch_normalization_3 (Batch (None, 5, 128)            512       
_________________________________________________________________
flatten (Flatten)            (None, 640)               0         
_________________________________________________________________
dense (Dense)                (None, 2400)              1538400   
_________________________________________________________________
dense_1 (Dense)              (None, 1200)              2881200   
_________________________________________________________________
dense_2 (Dense)              (None, 600)               720600    
_________________________________________________________________
dense_3 (Dense)              (None, 300)               180300    
_________________________________________________________________
dense_4 (Dense)              (None, 120)               36120     
_________________________________________________________________
dense_5 (Dense)              (None, 60)                7260      
_________________________________________________________________
dense_6 (Dense)              (None, 30)                1830      
_________________________________________________________________
dense_7 (Dense)              (None, 1)                 31        
=================================================================
Total params: 5,399,245
Trainable params: 5,398,285
Non-trainable params: 960
_________________________________________________________________

Epoch 1/50
 1/25 [>.............................] - ETA: 0s - loss: 641.0426 - mse: 641.0426 3/25
…
